…
    # output: 24 floating point numbers each of 2 represents one landmark position.
    # 12 landmarks points are as follow:
        "L.Chest", "R.Chest", "Shoulder.A", "Shoulder.B", "Shoulder.C", "Shoulder.D", "Shoulder.E", "Arm.A", "Arm.B", "L.Waist", "R.Waist", "Arm.E"
    # model architecture
    _________________________________________________________________
    Layer (type)                 Output Shape              Param #
    =================================================================
    image_input (InputLayer)     [(None, 128, 128, 3)]     0
    _________________________________________________________________
    normalization (Normalization (None, 128, 128, 3)       7
    _________________________________________________________________
    conv2d (Conv2D)              (None, 126, 126, 32)      896
    _________________________________________________________________
    batch_normalization (BatchNo (None, 126, 126, 32)      128
    _________________________________________________________________
    max_pooling2d (MaxPooling2D) (None, 63, 63, 32)        0
    _________________________________________________________________
    conv2d_1 (Conv2D)            (None, 61, 61, 64)        18496
    _________________________________________________________________
    batch_normalization_1 (Batch (None, 61, 61, 64)        256       
    _________________________________________________________________
    conv2d_2 (Conv2D)            (None, 59, 59, 64)        36928
    _________________________________________________________________
    batch_normalization_2 (Batch (None, 59, 59, 64)        256
    _________________________________________________________________
    max_pooling2d_1 (MaxPooling2 (None, 29, 29, 64)        0
    _________________________________________________________________
    conv2d_3 (Conv2D)            (None, 27, 27, 64)        36928
    _________________________________________________________________
    batch_normalization_3 (Batch (None, 27, 27, 64)        256
    _________________________________________________________________
    conv2d_4 (Conv2D)            (None, 25, 25, 64)        36928
    _________________________________________________________________
    batch_normalization_4 (Batch (None, 25, 25, 64)        256
    _________________________________________________________________
    max_pooling2d_2 (MaxPooling2 (None, 12, 12, 64)        0
    _________________________________________________________________
    conv2d_5 (Conv2D)            (None, 10, 10, 128)       73856
    _________________________________________________________________
    batch_normalization_5 (Batch (None, 10, 10, 128)       512
    _________________________________________________________________
    conv2d_6 (Conv2D)            (None, 8, 8, 128)         147584
    _________________________________________________________________
    batch_normalization_6 (Batch (None, 8, 8, 128)         512
    _________________________________________________________________
    max_pooling2d_3 (MaxPooling2 (None, 7, 7, 128)         0
    _________________________________________________________________
    conv2d_7 (Conv2D)            (None, 5, 5, 256)         295168
    _________________________________________________________________
    batch_normalization_7 (Batch (None, 5, 5, 256)         1024
    _________________________________________________________________
    flatten (Flatten)            (None, 6400)              0
    _________________________________________________________________
    dense (Dense)                (None, 1024)              6554624
    _________________________________________________________________
    batch_normalization_8 (Batch (None, 1024)              4096
    _________________________________________________________________
    dense_1 (Dense)              (None, 24)                24600
    =================================================================
    Total params: 7,233,311
    Trainable params: 7,229,656
    Non-trainable params: 3,655
    _________________________________________________________________

## environment.
    - OS: windows, Linux, MacOs
    - python = 3.8

## set up environment.
    # install python = 3.8
    # install dependencies in requirements.txt
        $ pip install -r requirements.txt
…
